data.pth (torch, 9898 bytes, 6 tensors)

l1.weight f4 [8, 136]
0	0x3edcb267	0.4310486
1	0x3f02bf68	0.5107331
2	0x3d4b002f	0.049560722
3	0xbdf74293	-0.12073245
4	0xbe09b228	-0.13446867
5	0x3ff391b6	1.9028842
6	0x3fb1981f	1.3874549
7	0x3fb75ec3	1.4325794
8	0xbfa2b240	-1.2710648
9	0x3d1c4dae	0.03816002
10	0xbe2e3eaf	-0.170161
11	0xbe424172	-0.18970278
12	0xbd96e148	-0.07367188
13	0x3fa82faa	1.3139546
14	0x3f1fb8ce	0.62391365
15	0x3dee1b64	0.11626318
16	0xbe407ad1	-0.1879685
17	0x3db9e076	0.09076016
18	0x3f97251a	1.1808197
19	0x3e5a5063	0.21319728
20	0x3dd0c3ee	0.101936206
21	0xbe58b885	-0.21164139
22	0x3e4c8eaf	0.19976304
23	0xbe3109de	-0.1728892
24	0x3fa67b9f	1.3006476
25	0x3d2208e8	0.039559275
26	0xbe352889	-0.17691244
27	0xbe9c475a	-0.30523187
28	0xbeade575	-0.33964124
29	0x40126f88	2.2880573
30	0xbc4fcb69	-0.012682774
31	0xbe85dd9a	-0.2614563
32	0xbd3e5b4a	-0.04647378
33	0xbf373f60	-0.7158108
34	0xbf0d1715	-0.55113345
35	0xbf911c12	-1.1336691
36	0xbed3f6b6	-0.41399163
37	0x3efc8ef0	0.49327803
38	0x3ed0eefc	0.4080733
39	0x3ef3d5ac	0.47623956
40	0x3f8e5982	1.1121066
41	0xbe5e4800	-0.21707153
42	0x3f64171c	0.8909776
43	0x3f055624	0.52084565
44	0x3d9085cb	0.07056769
45	0xbe98580d	-0.29754677
46	0x3f0def5c	0.5544336
47	0x3f68a87b	0.9088208
48	0x3f85fe40	1.0468216
49	0xbf0a8d4c	-0.5412185
50	0x3f237484	0.63849664
51	0x3f8e199d	1.1101567
52	0xbd434c8b	-0.04768042
53	0x3e299506	0.16560754
54	0xbccc9982	-0.024975542
55	0xbe83ba59	-0.2572811
56	0xbec00dba	-0.37510473
57	0xbef526f3	-0.47881278
58	0xbf020e17	-0.5080275
59	0x3f2bca0c	0.67105174
60	0x3eee555e	0.46549505
61	0xbf062723	-0.5240347
62	0xbe5ef33e	-0.21772477
63	0xbf03a4eb	-0.5142352
64	0xbefac940	-0.48981667
65	0xbf072a4d	-0.5279892
66	0xbf03f0b5	-0.51539165
67	0xbef07ca7	-0.46970102
68	0x3f4d4a19	0.8019119
69	0x3e69296f	0.22769712
70	0xbf035e2f	-0.5131559
71	0x3d4e867e	0.05042123
72	0x3f12b243	0.57303256
73	0xbe63cb26	-0.22245464
74	0x3f174ee6	0.59104764
75	0x3ec0cee2	0.3765784
76	0x3e8a5ad2	0.27022415
77	0xbeaa4fec	-0.332641
78	0x3f06a1aa	0.5259043
79	0xbe8a38eb	-0.2699655
80	0xbe3498ab	-0.17636363
81	0x3fd21cfc	1.6415095
82	0xbee5f743	-0.44915208
83	0xbea5a01e	-0.32348722
84	0xbee7d47c	-0.452793
85	0xbf05e999	-0.52309567
86	0x3f519590	0.8186884
87	0x3fd30588	1.6486063
88	0x3efd907a	0.4952429
89	0xbeccfd84	-0.40037167
90	0xbe59b399	-0.21259917
91	0x3eddbd75	0.43308607
92	0x3f4c8894	0.798959
93	0x3ef1b8a4	0.47211182
94	0x3e28efbe	0.16497704
95	0x3e7ec49e	0.24879691
96	0x3f83a8b8	1.0285864
97	0x3fbd58d8	1.4792738
98	0x3f0b91cb	0.5451934
99	0x3f44c4fb	0.7686307
100	0x3f1ed372	0.6204139
101	0xbf30ff57	-0.6913962
102	0xbfc0e53a	-1.5069954
103	0x3d37da9b	0.044886213
104	0x3fab3ec6	1.3378532
105	0xbe296752	-0.1654332
106	0xbdc381fd	-0.09546278
107	0x3f97c469	1.1856815
108	0xbe44c1be	-0.19214532
109	0x3eb1f246	0.34755152
110	0xbea356c8	-0.31902146
111	0x3f60306e	0.875739
112	0x3e85d943	0.2614232
113	0xbc4ea3e8	-0.0126123205
114	0xbd42fc16	-0.04760369
115	0x3f9b7537	1.2145146
116	0xbe3789ec	-0.17923707
117	0x3f8e09e2	1.1096766
118	0x3f6a16fd	0.9144133
119	0xbe92b922	-0.2865687
120	0x3bedfd3a	0.007262853
121	0xbed7f6fe	-0.42180628
122	0xbe1f0dfb	-0.15532677
123	0x3e9c9169	0.3057969
124	0x3f51e391	0.81987864
125	0x3e83b585	0.25724426
126	0xbe70d25a	-0.23517743
127	0xbe047283	-0.12934308
128	0xbe8efb9d	-0.2792634
129	0xbe71962f	-0.23592447
130	0xbfd232be	-1.6421735
131	0x3ee307c8	0.44341874
132	0xbf048852	-0.5177051
133	0x3dd9dea2	0.10638167
134	0xbe0e8a80	-0.13920021
135	0x3faee44c	1.3663421
136	0xbddf4028	-0.10900909
137	0x3e815d29	0.25266388
138	0xbd8e8ca8	-0.06960422
139	0xbe421539	-0.18953408
140	0xbe52691a	-0.20547906
141	0x3fa91c16	1.3211696
142	0x3ef7a93b	0.483713
143	0x3ec31e5f	0.3810911
144	0x3f863d9a	1.0487549
145	0xbd1bfbd3	-0.038081955
146	0xbf913504	-1.1344304
147	0xbf0191bf	-0.50613016
148	0x3ec2a880	0.3801918
149	0xbdae0541	-0.08497096
150	0x3f1e53b0	0.61846447
151	0xbf0f30ff	-0.5593414
152	0x3e818fba	0.25304967
153	0xbdf0bcc2	-0.11754753
154	0xbeb685fc	-0.35649097
155	0xbed8f62c	-0.42375314
156	0x3f9ff063	1.2495235
157	0xbf00e119	-0.5034347
158	0xbf06b5a3	-0.52620906
159	0xbe668fb4	-0.22515756
160	0x3ebc34b6	0.36758965
161	0xbf307252	-0.6892444
162	0xbf6dd049	-0.9289594
163	0xbedf5af8	-0.4362409
164	0xbeeea1d2	-0.46607834
165	0x402fd36c	2.7472792
166	0xbfb77b26	-1.4334457
167	0xbeeb6e90	-0.4598279
168	0xbd9e1c7e	-0.07720278
169	0x3f13f873	0.5780098
170	0x3dc301b6	0.09521811
171	0x3f2ac244	0.66702676
172	0xbd928536	-0.07154314
173	0xbdc6d2a4	-0.09708145
174	0xbe80dff6	-0.2517087
175	0xbed525ee	-0.416305
176	0xbe0efc0c	-0.13963336
177	0x3f04baec	0.5184772
178	0xbf05ea80	-0.52310944
179	0xbe875776	-0.26433915
180	0x3e56346e	0.20918438
181	0xbc05d7a2	-0.008169087
182	0x3ef19bc0	0.4718914
183	0x3f581c50	0.844182
184	0x3f4ee35d	0.8081568
185	0xbf4fcd99	-0.8117309
186	0x3f268806	0.65051305
187	0x3f7d7c02	0.99017346
188	0x3f8dd7b9	1.1081458
189	0x3e1551ab	0.14581935
190	0xbd88be79	-0.06676955
191	0x3f064128	0.5244317
192	0xbf3811a7	-0.71901935
193	0xbecfe4e6	-0.40604323
194	0x3f598828	0.8497338
195	0x3f316727	0.69298023
196	0xbeedc2a2	-0.46437556
197	0x3f5433dd	0.8289164
198	0xbe47db86	-0.19517335
199	0x3f40b089	0.7526937
200	0x3f3597cc	0.7093475
201	0x3f437cb4	0.76362157
202	0x3f672f68	0.9030671
203	0x3f4eb3e5	0.8074325
204	0x3f0d5ad9	0.5521675
205	0x3e3fb6d4	0.18722087
206	0x3f583e15	0.8446973
207	0xbf294db6	-0.661342
208	0x3f0a5677	0.54038185
209	0xbe8f5faf	-0.28002688
210	0xbf18e034	-0.59717107
211	0x3efd3aa9	0.49458817
212	0x3ecd4473	0.40091285
213	0xbf1277ce	-0.5721406
214	0xbe169f6f	-0.14709257
215	0x400a9930	2.1655998
216	0xbf6d9704	-0.92808557
217	0x3dd84701	0.10560418
218	0xbeb6771c	-0.35637748
219	0xbeaa9fdb	-0.33325085
220	0xbe9e8ee4	-0.30968392
221	0x3f56c142	0.8388864
222	0xbf238f9f	-0.63891023
223	0x3e70050f	0.2343943
224	0x4002d4d6	2.0442405
225	0xbee32278	-0.44362235
226	0x3eecbd3d	0.46238127
227	0xbe5e4a5d	-0.21708055
228	0x3f0b6295	0.544473
229	0x3fc042fd	1.5020443
230	0x3e264688	0.16237843
231	0x3f634924	0.8878348
232	0x3fa4dc6d	1.2879769
233	0x3f8e06b0	1.1095791
234	0x3ecbba5c	0.39790618
235	0x3f22d612	0.63607895
236	0x3ebaaad3	0.36458454
237	0x400549f9	2.08264
238	0x3fd4a735	1.6613528
239	0x3ffe7264	1.9878659
240	0xbf0aa55b	-0.5415856
241	0xbea5c61b	-0.32377705
242	0x3f0f279b	0.5591981
243	0xbf02ea15	-0.5113843
244	0xbe542dab	-0.20720546
245	0x3eeab24a	0.4583915
246	0xbe92dc47	-0.28683683
247	0xbf02aa77	-0.5104136
248	0x3f99a63b	1.2003855
249	0xbed842f3	-0.42238578
250	0x3d49f827	0.049308922
251	0x3f885690	1.0651417
252	0xbf0b8bee	-0.5451039
253	0xbee0b89f	-0.43890855
254	0x3f619a42	0.88126004
255	0xbeb44dab	-0.35215506

l1.bias f4 [8]
0	0x3f0a08d4	0.5391972
1	0x3f4c8635	0.79892284
2	0x3f83d32d	1.0298821
3	0x3f0dec43	0.5543863
4	0x3f6bb8a9	0.92078644
5	0x3f1a1372	0.6018592
6	0x3f0fef1b	0.5622422
7	0x3f7003d3	0.93755835

l2.weight f4 [8, 8]
0	0x4019a71a	2.400824
1	0x3f4344ab	0.76276654
2	0x3f069784	0.52574944
3	0x3f6a9dc8	0.91647005
4	0xbfc1796c	-1.511518
5	0x3fdff7f7	1.7497548
6	0x3e5131a8	0.20429099
7	0xbd1ac9e6	-0.0377902
8	0x3f856160	1.0420341
9	0x400c3dc6	2.1912704
10	0x40154384	2.3322458
11	0x3e95899c	0.2920655
12	0x3fb0a715	1.3800989
13	0xbfbcb5d0	-1.4742985
14	0xbe1c20d7	-0.15246902
15	0xbf6f90c4	-0.9358027
16	0xbf5ae31b	-0.85502785
17	0x3f5101ea	0.81643546
18	0x3e7dd8df	0.24789761
19	0x3f13b358	0.5769553
20	0xbf2cd7c4	-0.6751673
21	0x3f0aa2ab	0.5415446
22	0x3ea9b921	0.33149055
23	0x4024dca2	2.5759664
24	0xbeb4263f	-0.3518543
25	0x3e392635	0.18080981
26	0xbf0e8649	-0.5567365
27	0x3fd9ccb2	1.7015593
28	0x3ef931e5	0.4867088
29	0x3f3f18e5	0.7464736
30	0x3fc27103	1.5190738
31	0xbf21f73d	-0.6326788
32	0x3f31dbeb	0.69476193
33	0x3d851f89	0.065001555
34	0xbf88864b	-1.0665983
35	0x3fa5a0e2	1.2939723
36	0x3f0a3ae8	0.53996134
37	0x3c214835	0.009843876
38	0x3fb2c5ca	1.396661
39	0x3edcb482	0.43106467
40	0xbe60e3d4	-0.2196191
41	0xbe64040a	-0.22267166
42	0xbea47d9f	-0.3212709
43	0xbe829201	-0.25502017
44	0x3e908e95	0.2823378
45	0xbeb48d18	-0.35263896
46	0xbe8d4275	-0.27589765
47	0x3dbd2538	0.092356145
48	0x3d990aae	0.0747274
49	0xbe07f24e	-0.13276026
50	0x3df16839	0.11787457
51	0x3ec79197	0.38978264
52	0xbe97d7a0	-0.29656696
53	0x3d639677	0.055563416
54	0xbe06d27f	-0.13166235
55	0xbe8a36c6	-0.26994914
56	0xbfcb56e0	-1.5885887
57	0xbf7604ec	-0.9610126
58	0x3f3997be	0.72497165
59	0x3d1e2646	0.03861072
60	0x400e3bbd	2.2223961
61	0x3fe63d96	1.7987545
62	0x3faf507e	1.3696439
63	0xbe81af96	-0.25329274

l2.bias f4 [8]
0	0xbe71e234	-0.23621446
1	0x3f541a50	0.8285265
2	0x3f0c290b	0.54750127
3	0xbec68a9a	-0.3877762
4	0xbebf7298	-0.37392116
5	0xbe2ccc25	-0.1687475
6	0xbe9a7f38	-0.30175185
7	0x3f8216ee	1.0163248

l3.weight f4 [22, 8]
0	0x3f85aef6	1.0444019
1	0x3e848c4a	0.25888282
2	0xbfc22363	-1.5167049
3	0xbfb038b4	-1.3767304
4	0xc03a7c81	-2.913849
5	0x3e61c826	0.22049007
6	0xbe6c01d2	-0.2304757
7	0xbf5ed70a	-0.87046874
8	0x3dfbcf7f	0.12295436
9	0xbf92d783	-1.1472019
10	0x3eabb553	0.33536777
11	0x3e8cea35	0.27522436
12	0x3db4942f	0.08817326
13	0xbe912308	-0.2834704
14	0xbf41b64f	-0.75668806
15	0xbf5761bb	-0.841335
16	0x3ee731b4	0.45155108
17	0xbf73cddd	-0.95236
18	0xbf0255e8	-0.5091233
19	0x3e86ec2a	0.26352054
20	0x3e1a2714	0.1505397
21	0x3e853213	0.26014766
22	0x3f085deb	0.5326831
23	0xbf023dad	-0.5087536
24	0xbf714423	-0.94244593
25	0xbdb7af48	-0.08968979
26	0xc00c54f2	-2.1926847
27	0x3e48c51d	0.19606443
28	0xbfd919bb	-1.6960977
29	0x3c9c01f0	0.019043893
30	0x3d8c4fb8	0.06851143
31	0x3f4c956b	0.79915494
32	0x3e5187a1	0.20461895
33	0xbe793389	-0.24336065
34	0xbf437d9a	-0.7636353
35	0xbf20c05b	-0.6279351
36	0xc02624f4	-2.5960054
37	0x3e4e7116	0.20160326
38	0x3e0a8b2f	0.13529657
39	0x3f5855ed	0.8450611
40	0x3f8e353e	1.1109998
41	0xc0170799	-2.3598387
42	0x3f205cd4	0.62641644
43	0xbfb6a47a	-1.4268944
44	0xc06094ce	-3.5090823
45	0xbe8529c6	-0.26008433
46	0x3e08ef5e	0.13372561
47	0xbc3e7616	-0.011624834
48	0x37ce12ea	2.4565921e-05
49	0x3ea157aa	0.31512195
50	0x3f822538	1.0167608
51	0xc0254fbe	-2.582992
52	0xc0985e35	-4.7615
53	0xbe77ce5a	-0.2419981
54	0xbe40f7ad	-0.18844481
55	0xbfb5446f	-1.4161509
56	0x3e656f67	0.22405778
57	0x3f907b0e	1.1287553
58	0xbee4d73a	-0.44695455
59	0xc02d7bd0	-2.710682
60	0xbfc45f1b	-1.5341524
61	0x3d8a1c1c	0.06743643
62	0xbf8855e8	-1.0651217
63	0xc05cd3ff	-3.4504392
64	0xbf375a55	-0.7162221
65	0xc06709cc	-3.609973
66	0xbe51bb8c	-0.204817
67	0x3eabf6dd	0.3358678
68	0x3f4866ff	0.7828216
69	0xbe1974a2	-0.14985898
70	0xbed64e28	-0.41856503
71	0xbe08b7a2	-0.133513
72	0xc00a8b56	-2.1647544
73	0x3e7fb757	0.24972282
74	0x3f070617	0.5274367
75	0xbfac885d	-1.3479115
76	0xbd2d0c3c	-0.042247996
77	0xbea525d3	-0.3225542
78	0xbd0d0ccd	-0.034436036
79	0xbeb33c50	-0.35006952
80	0xbec7ea00	-0.39045715
81	0xbf2e429d	-0.68070394
82	0x3e7227cf	0.23647998
83	0x3e405cc1	0.18785383
84	0xbf41d5c6	-0.7571682
85	0x3ea7fb97	0.32809135
86	0xbca0cc98	-0.019628808
87	0x3e62657c	0.22109026
88	0xbee3206a	-0.44360667
89	0x3d073715	0.033011515
90	0xbf4e50c1	-0.8059197
91	0x3ecb460a	0.39701873
92	0xbea799e5	-0.327346
93	0xbe8346ad	-0.2563986
94	0xbfadc663	-1.3576168
95	0xbde92e02	-0.113857284
96	0x3f196c12	0.5993053
97	0x3ce2401d	0.027618462
98	0xbf7f09fb	-0.99624604
99	0x3db86837	0.090042524
100	0xbfa77865	-1.3083616
101	0xbd6ad5c8	-0.057332784
102	0x3f9dfa68	1.2342043
103	0xc06b992c	-3.6812239
104	0x3e91e378	0.28493857
105	0xbea054b2	-0.31314617
106	0x3f083903	0.5321199
107	0xbf1042c8	-0.563519
108	0xbf3d43b5	-0.7393144
109	0x3e45697e	0.19278523
110	0xbf76b800	-0.9637451
111	0xbfa8d123	-1.3188823
112	0xc086bd99	-4.2106442
113	0xbfc2e341	-1.5225602
114	0x3f5a4893	0.8526699
115	0xbb247421	-0.0025093632
116	0x3d333243	0.043749105
117	0xbdad940c	-0.08475503
118	0xbe40ed56	-0.18840536
119	0x3eee1d15	0.46506563
120	0xbfd029a0	-1.6262703
121	0x381bf40f	3.7182177e-05
122	0xc0908c6c	-4.5171413
123	0x3eab2c22	0.33432108
124	0x3f500904	0.81263757
125	0x3e9f5b49	0.31124333
126	0xbdcdb7e2	-0.100448385
127	0xbdd8398c	-0.10557851
128	0xc068fd6d	-3.640468
129	0x3f93de2e	1.1552179
130	0x3f38a364	0.72124314
131	0xc05815a6	-3.3763213
132	0xc0837f06	-4.109256
133	0xbea3da24	-0.32002366
134	0xbcc5e8d0	-0.024158865
135	0xbea6e2e5	-0.32594982
136	0xbf1a96fe	-0.60386646
137	0x3faf92f0	1.3716717
138	0xc0529875	-3.2905552
139	0xc0350220	-2.8282547
140	0xbf97d83e	-1.1862867
141	0xbe3d788b	-0.18503015
142	0xbd19a02f	-0.03750628
143	0xbf15c951	-0.5851031
144	0xc03fc802	-2.9965825
145	0x3f6aebb2	0.9176589
146	0xbfdda80d	-1.731691
147	0xbd27ec50	-0.04099685
148	0xbe371209	-0.17877974
149	0xbd95a240	-0.07306337
150	0x3e95dd12	0.29270226
151	0xbe846bca	-0.25863487
152	0x3e3549af	0.1770389
153	0x3f10af40	0.5651741
154	0xbf27a361	-0.6548367
155	0xbe81567a	-0.2526129
156	0xc03f8798	-2.992651
157	0x3da4f4cc	0.08054504
158	0xbf2ea0bc	-0.6821401
159	0xbf021f82	-0.5082933
160	0xbf8464fe	-1.034332
161	0xc00f6107	-2.240297
162	0xbfdd4c6b	-1.7288946
163	0x3f2495af	0.642909
164	0x3eb7a08b	0.35864672
165	0xbe38f2eb	-0.18061416
166	0xbe684759	-0.22683467
167	0x3f3b0971	0.7306128
168	0xbe89eb49	-0.2693732
169	0x3f0da761	0.55333525
170	0xbfd2ee9d	-1.6479069
171	0x3e954014	0.2915045
172	0xbe5be860	-0.21475363
173	0xbe4db635	-0.20089038
174	0xbeb9d72f	-0.36296985
175	0xbfff000e	-1.9921892

l3.bias f4 [22]
0	0xbf1c33bd	-0.61016446
1	0xbf04746a	-0.51740134
2	0x3dba21ec	0.09088501
3	0x3ed4ce10	0.41563463
4	0xbdff242d	-0.12458072
5	0x3e6181aa	0.22022119
6	0x3eb494d1	0.35269788
7	0x3d44603d	0.047943342
8	0xbf1e1530	-0.6175108
9	0x3c0b7d19	0.008513712
10	0xbea07921	-0.31342414
11	0xbf55a4f6	-0.83454835
12	0xbf59eced	-0.85127145
13	0x3e077ba6	0.13230762
14	0x3f4a99b8	0.79140806
15	0x3dbf9089	0.0935374
16	0x3f2d7585	0.67757446
17	0x3ec9e286	0.39430636
18	0xbee68940	-0.45026588
19	0xbec0eb1b	-0.3767937
20	0x3c930d4c	0.017950676
21	0xbe88fc50	-0.26755
